backend/models/model_epoch10.pth (torch, 880506 bytes, 22 tensors)

cnn.0.weight f4 [32, 1, 3, 3]
000000 f9 6b c2 3d af 32 d5 ba 44 c5 42 3e 45 b4 68 be
       0.094932504 -0.0016265715 0.19020563 -0.22725017
000010 c9 69 7b be ad c3 39 3d 27 23 1e be b4 ec 82 bc
       -0.24552073 0.045352627 -0.15443097 -0.01598201
000020 fb 52 32 3d 55 66 45 be ab 13 89 3e 0c d3 9e 3e
       0.043536168 -0.19277318 0.26772818 0.3102039
000030 fb da 18 bc 71 c2 24 bc e7 a8 9d 3e fe ea 83 bd
       -0.009329553 -0.010056124 0.30792925 -0.064413056
000040 5b fe 8a 3e 61 d5 29 3e 65 dc eb bd 62 2e 68 be
       0.27147183 0.16585304 -0.11516646 -0.22673944
000050 a0 08 22 3e 97 41 a5 3e da bb 5a bc c0 e0 57 be
       0.15823603 0.32276604 -0.013350451 -0.21081829
000060 57 61 8e 3e 36 a6 60 be b7 45 a2 be 3d 70 b8 3e
       0.2780864 -0.21938404 -0.31693813 0.3602313
000070 7c 0b 23 bd 4f a3 a5 3d 26 c3 8b be f0 a9 bd bd
       -0.039805874 0.08087789 -0.27297324 -0.09260929
000080 b7 92 2d be e3 4b 6b be 2f 64 2b be 85 da b4 bd
       -0.16950499 -0.22978167 -0.16737436 -0.08830742
000090 e9 32 48 be 39 d4 32 be 7b df d2 3b 3d 9b 6a 3e
       -0.1955067 -0.17463769 0.0064353324 0.22910781
0000a0 ee 8f 84 be 6e 61 df 3d 94 43 9d 3e 60 8b 8f 3e
       -0.2589106 0.10907255 0.3071562 0.28036022
0000b0 86 6e 97 be b5 10 0b 3c f9 aa 81 bd 6c 4f a6 bd
       -0.2957651 0.00848787 -0.063314386 -0.08120617
0000c0 40 73 e4 3d f5 6e 9a 3e 8f bf 1c 3e dc 25 44 3e
       0.11154795 0.30162778 0.15307449 0.19155067
0000d0 1c 36 9d be d4 78 7c 3e b4 37 42 be 32 6e ca 3d
       -0.30705345 0.24655467 -0.18966562 0.09884299
0000e0 9b 52 6e be f8 99 7b be ee fd 80 bc 3b 8a c5 bc
       -0.23273699 -0.24570453 -0.015746083 -0.024113765
0000f0 e8 fa 9a 3e 97 33 b8 3d 4f 94 59 3e 60 7e 12 be
       0.3026955 0.08994215 0.21247981 -0.1430602
000100 31 03 0e 3e 91 5e 0f 3e 26 0b 9b bd 5d 6c 08 3e
       0.13868405 0.14000918 -0.07570486 0.13322587
000110 52 12 a1 bd a1 6f 53 be 20 d6 be bd 04 77 8f 3e
       -0.078648224 -0.20648052 -0.09318185 0.2802049
000120 fc 73 8b be 0b b0 0e bd fd 43 28 be 0c ac 9c bc
       -0.27236927 -0.034835856 -0.16432185 -0.019125007
000130 e4 1b a7 be 36 02 83 be c9 9a 87 bc 57 dc 55 be
       -0.32638466 -0.25587624 -0.0165533 -0.20884834
000140 09 3b 80 be df 22 53 3e 87 c9 b0 3d 7c cd ca bd
       -0.2504504 0.20618771 0.08632188 -0.09902474
000150 1c c8 53 be 4c 82 8f be f6 8d 23 be 1f dc 4d be
       -0.20681804 -0.28029096 -0.15972123 -0.20103501
000160 62 03 02 3d 32 3f b1 3c dd 74 6c 3d 46 11 41 be
       0.031741507 0.02163658 0.057728637 -0.18854246
000170 de f2 00 3e f9 2f c1 bd c0 52 8b be 8e ea 78 be
       0.12592646 -0.09432978 -0.2721157 -0.24308226
000180 6d ef ed 3d 97 b4 db 3d 02 54 a7 3d 44 f3 32 3e
       0.116179325 0.10727804 0.0817032 0.17475611
000190 6a 49 34 3d 63 ca 86 be 9b fe 75 be 6c 25 bd bd
       0.044015326 -0.26326284 -0.24022906 -0.09235653
0001a0 82 56 a1 be 65 2f a8 3e 0c f4 52 3d ae d4 fe bd
       -0.31511313 0.3284866 0.051502272 -0.12442909
0001b0 b6 01 e8 bd f8 4f 20 be 44 c3 81 3e 08 70 20 3e
       -0.11328451 -0.15655506 0.25344288 0.15667737
0001c0 8f 7d ea bd 72 ae 0a be 33 e4 ba bd 2f ec dd bd
       -0.1144973 -0.13543108 -0.09125557 -0.10836064
0001d0 98 b2 cd bc 1d 12 4c 3e b8 f3 d5 bd 3e cd 91 3e
       -0.025109574 0.19928785 -0.10446876 0.284769
0001e0 0f 04 98 be 9b 1a 09 3e 21 a8 75 bd 37 4f 3e be
       -0.29690596 0.13389055 -0.059974793 -0.18584906
0001f0 d7 14 da bd 40 15 75 bd 98 bf 8d 3e dc 5a 55 be
       -0.10648506 -0.05983472 0.27685237 -0.20835441
000200 70 8a 87 3e 84 43 41 be be 31 87 3e 94 a2 dd 3d
       0.26472807 -0.18873411 0.26405138 0.10822025
000210 f3 f6 c4 3d 9b 77 3c be fb 84 b1 bd 51 4f 96 bd
       0.09617414 -0.18405001 -0.08667942 -0.07339347
000220 4b b8 45 bd 81 50 82 be 04 9f 20 bd 4c 07 38 3e
       -0.04827146 -0.25452045 -0.03921415 0.17971534
000230 7e 4a 9d 3d cf 09 30 3d fb 58 95 3e a0 39 30 be
       0.07680224 0.042978104 0.2916945 -0.17209482
000240 db 76 92 be 92 ae 76 bc 3f 81 9e 3e 65 3c 68 3e
       -0.28606305 -0.015056269 0.30957982 0.22679289
000250 59 1c 9b be c1 88 88 3d 00 33 51 be e7 32 69 3e
       -0.30295065 0.06666709 -0.20429611 0.22773324
000260 b1 16 99 bd 17 87 bd bd eb a5 29 be 8e 03 a5 3e
       -0.07475031 -0.09254282 -0.16567199 0.32229275
000270 ec b2 0b bd d4 09 49 3e 0c 3a 41 be 7a 84 95 be
       -0.03410618 0.19632655 -0.188698 -0.29202634
000280 23 1d ac bd 9a 3f 6c 3e 9d 00 29 be 73 7d 5c 3e
       -0.08403995 0.23071137 -0.1650414 0.2153223
000290 be 99 09 3e 63 68 d0 bc 1d 19 83 be 3e e5 f6 3d
       0.13437554 -0.0254404 -0.25605097 0.12055443
0002a0 fb 78 a8 3d 44 d1 84 3d 5f 50 aa be 10 7d 3e be
       0.082262 0.06485227 -0.33264443 -0.18602395
0002b0 2a 7c 8b 3e ef c7 23 3e d0 5e 3b bd 44 18 0b be
       0.27243167 0.15994237 -0.045744717 -0.13583475
0002c0 ba 4c 43 3e 05 23 b9 be ef 64 c2 3d 6d ad 9b 3e
       0.19072238 -0.3615953 0.09491908 0.3040575
0002d0 34 5e c7 3d d9 47 ac 3e 1e 13 83 3e 2f 09 d2 3d
       0.09734765 0.33648565 0.25600523 0.10255658
0002e0 5d a3 9e bd ca fd 8f be 64 a4 7e 3e 21 07 83 be
       -0.07746003 -0.28123313 0.24867398 -0.25591376
0002f0 27 d7 8e 3e 61 e6 1e be 15 67 91 be 64 85 d1 bd
       0.27898523 -0.1551757 -0.28398958 -0.1023052
000300 12 58 81 be b4 49 dd bc db 15 67 3e 04 43 26 be
       -0.25262505 -0.027012683 0.22566931 -0.16236502
000310 ae 55 94 3e c2 0c ab 3e 3f a8 e1 3d e7 fd 7a 3d
       0.28971618 0.3340817 0.110184185 0.061277296
000320 17 35 0c 3e 33 fb 89 3e 68 9c b3 bb 86 c6 be bd
       0.13692127 0.26949462 -0.0054812916 -0.09315209
000330 e6 4a f6 bc 12 4c 3a 3e fb b9 41 3e 25 d0 18 be
       -0.030065011 0.18193081 0.18918602 -0.14923151
000340 fc 94 a6 3d 97 58 8a 3e 46 de 9d 3e a7 b3 84 3e
       0.08133885 0.27020714 0.30833644 0.25918314
000350 41 4f 1b 3e 25 83 a5 be 92 4a 13 3e 12 73 88 be
       0.15166952 -0.32326618 0.14383915 -0.26650292
000360 99 0e 0e bd 08 e2 f3 3c a6 6c 32 be 84 bf e2 3d
       -0.03468189 0.029770866 -0.17424259 0.11071685
000370 cb b2 2a 3e b1 41 ba bd c9 b6 a0 be d6 ab 79 bd
       0.16669767 -0.09094561 -0.31389454 -0.06095489
000380 01 b0 a3 3e 2c 47 83 3e d9 02 27 be 16 b1 85 be
       0.31970218 0.25640237 -0.1630968 -0.26111668
000390 6f c6 ab be 8d 14 29 3d 50 de 2e be d8 54 6b bd
       -0.3354983 0.041279364 -0.17076993 -0.05745396
0003a0 f9 df 87 bd c8 da 69 3e 2c 06 65 bd bf 24 89 3e
       -0.06634516 0.22837365 -0.05591409 0.26785848
0003b0 46 9e ae 3d cb 67 d9 3d d4 16 7e 3e 41 cb 08 3e
       0.08526282 0.106155 0.24813396 0.13358785
0003c0 0e 97 8b be 17 ff a0 be c1 08 32 3e 8e 6b 86 be
       -0.27263683 -0.31444618 0.17386152 -0.26253933
0003d0 9a 33 9b be f1 cf 06 3e 55 1e 99 bd 2d 5c 68 be
       -0.30312806 0.13165261 -0.074764885 -0.22691412
0003e0 ed 56 91 be 89 2a 00 bd d6 91 9f be ad 1d 81 3e
       -0.28386632 -0.031290565 -0.31165951 0.25217953
0003f0 bb 0f 82 3e e8 0d 29 bd d7 45 9a 3e 54 11 69 be
       0.25402626 -0.041273028 0.3013141 -0.22760516

cnn.0.bias f4 [32]
000000 83 e6 82 be 50 5b d5 bd 17 f1 36 be 90 bb 72 be
       -0.2556649 -0.10417807 -0.17865406 -0.23704362
000010 73 cf 9e be 53 c8 72 bd a4 c0 09 be 55 30 fd 3d
       -0.31017646 -0.059273075 -0.13452393 0.12362734
000020 80 e8 1d be 58 eb d2 3c 87 7d 68 bd ec 73 43 3e
       -0.15420723 0.025746986 -0.056760337 0.1908719
000030 60 5e 6d 3e b3 55 be 3d 04 c8 53 3e a2 1b e1 bc
       0.23180532 0.092936896 0.20681769 -0.027478997
000040 71 8f 0c 3e e6 26 19 3e 41 a6 79 be ec fd 58 be
       0.13726594 0.14956245 -0.24379827 -0.21190614
000050 49 c9 37 bd 8b fe 4f bc 9f af 9c 3e e3 47 19 3e
       -0.044869695 -0.012694965 0.30602738 0.14968829
000060 0d 3b c0 3d 4e 0f 23 3e 69 05 31 3e e0 d9 71 be
       0.09386263 0.15923807 0.1728722 -0.23618269
000070 4b 07 61 be af 71 85 3e 19 c2 4f be fc ab 01 be
       -0.21975438 0.26063296 -0.20288886 -0.12663263

cnn.1.weight f4 [32]
000000 93 70 7f 3f f6 67 7d 3f 0e af 7c 3f 92 aa 80 3f
       0.9978115 0.98986757 0.9870461 1.0052054
000010 65 02 7b 3f d1 e8 7b 3f 96 be 7f 3f d0 da 82 3f
       0.9805053 0.98402125 0.99900186 1.0223026
000020 cc 2a 79 3f cc 2f 7f 3f 75 4a 81 3f 6e 01 7e 3f
       0.9733093 0.9968231 1.0100847 0.9922093
000030 40 a9 7e 3f 80 c2 81 3f cc 48 7a 3f a4 d3 81 3f
       0.99477005 1.0137482 0.9776733 1.0142713
000040 81 f8 82 3f 84 9f 81 3f ce bf 80 3f 5e ef 80 3f
       1.0232087 1.0126805 1.0058534 1.0073049
000050 8b e0 7b 3f 6e 65 7f 3f 61 68 7d 3f 9e d7 7d 3f
       0.983895 0.99764144 0.98987395 0.9915713
000060 b9 4e 81 3f 14 c0 7e 3f f1 61 7d 3f 2e d4 7d 3f
       1.0102149 0.9951184 0.9897757 0.99151886
000070 04 e1 7d 3f 5d 1a 7b 3f 79 10 7c 3f aa 12 82 3f
       0.9917147 0.980871 0.98462635 1.0161946

cnn.1.bias f4 [32]
000000 bd 08 38 39 c6 a4 5d ba 42 6f 83 3c 15 d5 d4 ba
       0.00017550863 -0.0008455034 0.016044263 -0.001623782
000010 83 81 41 3c fa 04 a2 bb dd be 09 3c 7a 29 50 3b
       0.011810663 -0.004944441 0.008407322 0.0031763003
000020 b4 03 4d bc 87 cf e1 bb e9 8f 34 3a 40 95 53 bb
       -0.01251309 -0.0068911943 0.00068878994 -0.0032285005
000030 f1 82 02 3c e7 39 be 3c 32 7e b6 bb c5 8e 1c 3b
       0.007965789 0.02322097 -0.005569243 0.0023888808
000040 48 e0 73 3c 2a 31 92 3c 2e c3 85 bc eb c6 f2 39
       0.014885016 0.017845709 -0.01632842 0.00046306042
000050 8b 3e ab bc 13 8b 70 3c eb 5e b0 bc 9c d5 27 bc
       -0.020903846 0.014681595 -0.021529635 -0.0102438
000060 ba 95 90 b9 58 8f 0b bb db b2 35 bc da c1 f2 3a
       -0.00027577375 -0.0021295156 -0.011090006 0.0018520907
000070 ab 30 c2 bb b5 43 24 bc 08 ca b9 bc a5 b3 18 3b
       -0.005926212 -0.010025908 -0.022679344 0.0023300436

cnn.1.running_mean f4 [32]
000000 38 9e 61 41 c3 86 58 c2 4b 92 8b 41 1a d7 00 42
       14.101128 -54.131603 17.446432 32.21006
000010 87 a4 51 bf 33 97 ea c1 74 c0 2b 3e 4b bf 96 c0
       -0.81891674 -29.323828 0.16772634 -4.710851
000020 f9 c1 9f 42 cb af fb 41 66 eb 83 41 a8 37 b8 41
       79.87885 31.460836 16.48994 23.027176
000030 33 ab 8c 41 5b f5 25 41 97 7d 8a c1 d2 7d 28 bf
       17.583593 10.372401 -17.311323 -0.65816987
000040 b4 1d 3b 40 95 e7 b7 40 a7 7a 03 41 a6 44 73 c1
       2.923688 5.7470193 8.217444 -15.20426
000050 70 38 0f c2 b3 a8 dd 40 4c b9 27 c2 2c 81 c7 c1
       -35.805115 6.926843 -41.930954 -24.938072
000060 1c 84 11 40 93 c6 dc 41 43 d3 99 c1 bb f8 65 42
       2.2736883 27.59696 -19.228155 57.4929
000070 4c 31 48 c2 b3 b7 82 c2 f9 dd 39 42 52 bb 9a 3f
       -50.04814 -65.35879 46.46677 1.2088416

cnn.1.running_var f4 [32]
000000 90 c7 29 42 c8 eb d0 43 d2 87 89 42 58 42 26 43
       42.444885 417.84204 68.765274 166.25916
000010 b0 99 d9 41 ac 43 ef 42 ba de 31 42 76 f6 9f 41
       27.200043 119.63217 44.467506 19.995342
000020 e7 69 54 44 8c 79 09 43 c0 da 52 42 b1 33 d6 42
       849.6547 137.4748 52.713623 107.10096
000030 0e 6b 29 42 f6 16 1d 42 15 d8 5b 42 9b fb 8b 41
       42.354546 39.272423 54.961018 17.497854
000040 c9 e9 1a 41 65 6b a8 41 67 9b 81 41 59 fe 91 42
       9.682076 21.052439 16.20088 72.99677
000050 b4 47 48 43 b5 13 9a 42 db ca 6f 43 9c f1 ef 42
       200.28009 77.03849 239.7924 119.97189
000060 78 39 f0 40 78 97 d5 42 7e d7 b3 42 f3 e3 de 43
       7.507015 106.79584 89.92088 445.78085
000070 1c 2d b1 43 e7 c0 18 44 53 32 a8 43 47 25 46 41
       354.35242 611.0141 336.39316 12.384101

cnn.4.weight f4 [64, 32, 3, 3]
000000 6a a5 8e bc 62 66 82 3d 34 09 23 3d bd 71 ff bc
       -0.01741286 0.06367184 0.0398037 -0.031182164
000010 f6 46 03 bc 9f 3a 43 bd 35 b9 5b bd 1a 4e 09 bd
       -0.008012524 -0.047663327 -0.053643424 -0.03352175
000020 e6 29 0e 3c 86 fa 16 bc 8d 32 3e bd e7 2a 88 3b
       0.008676982 -0.009215003 -0.046434928 0.004155505
000030 2a 48 c6 3c bd d5 54 bd 2f c8 3f 3d 14 d3 13 b7
       0.024204332 -0.05196165 0.04682177 -8.811028e-06
000040 1b c3 e6 3a 6e 6f 78 bb 38 bc 1b 3d 4d 12 56 bd
       0.0017605753 -0.0037908214 0.038021296 -0.052263547
000050 e1 38 36 bb 52 aa 59 bd 66 38 13 3d d0 eb 97 bc
       -0.0027804899 -0.053140946 0.035942458 -0.018545061
000060 e5 11 bc bb 19 64 d5 bc 26 37 20 3d 0d 16 d5 3c
       -0.005739438 -0.026048707 0.039115094 0.026011491
000070 f7 74 e2 3b e1 75 10 3d 0d 1d 91 3c c0 5b 5e bd
       0.006910916 0.035268668 0.017714048 -0.05428672
000080 ef 25 a1 bc 00 a3 0d bd 6f a9 8d ba 3a 3c 30 bd
       -0.019671408 -0.034579277 -0.0010807941 -0.043026187
000090 1a be 27 bd 88 dc 09 bd 1b a5 5b 3d c6 ed 2e 3d
       -0.04095278 -0.03365758 0.053624254 0.042707227
0000a0 24 7c 3a 3d e9 4f 54 3d 01 98 60 3c 58 64 4c 3d
       0.045528546 0.05183402 0.013708116 0.049900383
0000b0 c5 82 74 bc 11 22 00 3d 6c d9 b2 bb 18 fb 85 bd
       -0.014923756 0.03128249 -0.0054580476 -0.06542033
0000c0 07 27 ce 3c 39 c0 eb bc ef c0 25 bd 1d 72 58 bd
       0.025165094 -0.028778182 -0.0404672 -0.052843202
0000d0 96 a7 1b bc ef e9 33 3d ed 32 32 3c f2 45 a3 3c
       -0.009500405 0.04392427 0.010876399 0.019930813
0000e0 94 ff 41 3c c1 64 ca bc df 36 0f 3d cf 96 da 3c
       0.01184072 -0.024706246 0.03496444 0.02668324
0000f0 6d 00 28 3d 7a fe 4e bd 21 1e 49 3d a4 80 5f bc
       0.04101603 -0.050535657 0.049101 -0.01364151
000100 90 d9 88 bb 1d be 5f ba 03 bd f7 bc 98 5e 06 3c
       -0.004176326 -0.0008535104 -0.030241495 0.008201264
000110 7d 32 6e bc d3 fa 8d 3a 5e ef 08 3c 30 e5 21 3d
       -0.0145384045 0.0010832198 0.008357851 0.03952521
000120 2f 03 ca bc 5a 8a 84 3b b8 1b 70 bd 3b e2 73 bd
       -0.024659721 0.004044813 -0.058620185 -0.059541922
000130 a8 49 03 3d 66 25 6d bc bf 48 10 3d 09 4d 40 bd
       0.032052666 -0.0144742485 0.035225626 -0.046948466
000140 7b 1e 49 3d 96 95 17 3d b3 75 0b bd e1 79 28 3d
       0.049101334 0.03700789 -0.034047794 0.041131858
000150 4b d4 ad 3c de b1 39 3c 95 af d0 3b 9e d8 01 bd
       0.021219393 0.011333911 0.0063685873 -0.031700723
000160 20 4d de bc 40 a2 19 3d c2 09 32 bd 56 bb e2 3c
       -0.027136385 0.03750825 -0.043466337 0.02767722
000170 86 16 99 3c 74 a0 ab bc b7 7e 20 bd 3b a1 f6 bc
       0.018687498 -0.020950533 -0.039183345 -0.030106178
000180 c4 ac 04 3c 78 c5 21 3c d8 7a 3b 3d d6 9c 32 3c
       0.008097831 0.00987374 0.04577145 0.01090165
000190 46 ae a1 3c 66 45 81 3d 22 4f 58 bb 2b f3 de bc
       0.01973642 0.06312065 -0.0033006151 -0.02721556
0001a0 c3 07 48 bd 9e 8e a8 3c 3b c3 81 bd bb ab e2 3c
       -0.048835527 0.020575818 -0.063360654 0.027669778
0001b0 2d f1 17 3b 5e 85 00 3d 40 a8 af bc 26 68 44 bd
       0.0023184523 0.03137719 -0.021442533 -0.047950886
0001c0 31 ab 77 3c e0 9e 2a 3d 64 71 40 3d 19 4e 53 3c
       0.015116499 0.04165542 0.046983138 0.012897038
0001d0 08 ff 2d 3d c9 2d 0b 3d 9c d5 8e 3d fd 8a 00 bc
       0.042479545 0.03397921 0.069743365 -0.007845637
0001e0 df 38 bf 3c 02 79 37 bd 46 bf 69 3c c0 f0 44 3d
       0.023342548 -0.044793136 0.014266795 0.04808116
0001f0 5e e3 b4 bc e7 8e 1a bd 7c db 25 bd c6 bf d2 bc
       -0.022081073 -0.03773394 -0.04049252 -0.02572621
000200 46 df 66 bd ab c4 76 bc cc 06 df bc a1 75 50 3d
       -0.056365274 -0.015061538 -0.02722492 0.05089343
000210 c8 7a 8a bc e1 33 19 bd b2 c8 47 bd ad 7b 4e 3d
       -0.01690425 -0.03740299 -0.048775382 0.050410915
000220 7e 5a 08 3d 9f 12 80 3d b1 fb 07 bd 8f e5 6c 3d
       0.033289425 0.06253552 -0.033199016 0.05783611
000230 2e b1 d2 bc 14 19 95 3d 46 d4 0d 3d 1a 8c 1e 3d
       -0.025719251 0.07280174 0.034626268 0.03870783
000240 4e b2 12 3d ef 9c 83 3c 19 cf 5b 3d 29 ec 8e 3c
       0.035814576 0.016066043 0.0536643 0.017446594
000250 b6 c9 00 3d 55 3b 2a bc df cd 18 3d ce 58 23 bc
       0.031442367 -0.010390122 0.03730571 -0.009969903
000260 0f 67 e5 bc ec 40 79 3c 94 1c a0 3c a2 97 ef 3c
       -0.028003244 0.0152132325 0.019544877 0.029247109
000270 5f f3 6e bd 28 31 42 3c 77 3e 67 3c 42 91 7a bd
       -0.058337566 0.01185254 0.014114014 -0.061173685
000280 2d f6 31 bd f3 e1 8d bc ef 88 81 3d 13 c6 d3 3b
       -0.043447662 -0.017319655 0.06324946 0.0064628213
000290 7f f5 85 3d 2d be 47 bd 33 fc 71 bd 82 d0 30 3d
       0.06540965 -0.04876535 -0.059078407 0.0431676
0002a0 dc ba 28 3d 08 f1 eb bc 8d 6a 6c 3d c9 59 40 bd
       0.041193828 -0.028801456 0.057718802 -0.046960626
0002b0 f2 67 40 bd 84 11 29 bd 16 a4 1a 3d d2 b3 1c 3d
       -0.04697413 -0.04127647 0.03775414 0.038257428
0002c0 f1 ba 0e 3d 9f bf 51 3d 46 cd 1d 3d ed 36 67 3d
       0.03484625 0.051208135 0.038525842 0.056448866
0002d0 ac 0d 2e 3d 17 d5 2c bd 5e 93 47 bd 6e 39 89 3b
       0.042493507 -0.042195406 -0.048724525 0.0041877544
0002e0 ed 09 85 3c 53 f7 23 3c 20 49 f7 3c fb 0d 56 3d
       0.016240085 0.010007697 0.030186236 0.052259427
0002f0 eb c6 30 3d a9 89 13 3d 06 f3 26 3d 2e 20 33 3d
       0.043158453 0.036019955 0.04075911 0.04373186
000300 2e e7 57 3d 22 3c ed 3c ea 3f 0d 3d bf 6a 14 bd
       0.052710705 0.028959338 0.03448478 -0.036234614
000310 d5 f2 ee bb 15 39 29 bc 4e f6 35 3c 5d 97 04 3d
       -0.0072921314 -0.010328551 0.011106087 0.032370914
000320 7c 87 96 3b 1f 38 4e bd a6 a6 97 bc 9a 19 04 3d
       0.0045937877 -0.05034649 -0.018512081 0.032250978
000330 54 3d 49 bd f6 88 ff 3c 85 cb 0c bc 7f e7 0c bd
       -0.049130753 0.031193238 -0.008593445 -0.03440046
000340 23 2d 1c 3d 96 54 c9 3c 50 0b a0 3c 8e 89 70 bd
       0.038128983 0.024576467 0.019536644 -0.058724932
000350 31 a0 14 bd a7 36 bf 3c 3e 74 9a bc 43 0f 3d 3d
       -0.036285583 0.02334149 -0.018854257 0.046157133
000360 28 8c 76 3d fb 8b a6 bc bc f1 33 3d 0c 4a 40 bd
       0.060192257 -0.02033042 0.043931708 -0.046945617
000370 d3 53 e2 3c 80 db 5b bc 72 a9 14 3d 14 41 49 bd
       0.027627861 -0.013419032 0.03629441 -0.04913433
000380 be 4c 68 3d 1f f6 8f 3c e5 ae 0b bd 80 b5 6c 3d
       0.056713812 0.017573414 -0.03410234 0.05779028
000390 f9 bd 7a bd 45 7a f1 bc 49 99 51 3d ac f2 8d bc
       -0.06121633 -0.029477248 0.051171575 -0.017327629
0003a0 85 ff 44 3d b1 47 83 bd 52 a8 78 bc b4 34 5f bd
       0.048095245 -0.064101584 -0.015176849 -0.05449362
0003b0 da 4e 0e bc 46 6b ea bc e5 13 8d bb 38 12 4a bd
       -0.008685792 -0.028615605 -0.00430535 -0.04933378
0003c0 ba 0c 67 3d 12 17 31 bd 80 c3 6a 3d e8 99 61 3a
       0.05640862 -0.043234892 0.05731535 0.00086060027
0003d0 b9 9b 4d 3d 08 24 5e bd 39 cf b3 bc b9 b5 2b bd
       0.050197337 -0.05423358 -0.021949397 -0.04192135
0003e0 09 25 ee 3c a0 68 69 3c 28 19 ef 3c 43 9c 11 3c
       0.029070394 0.014246136 0.0291868 0.008887353
0003f0 0a 50 bd bc 35 cc 5d 3d f7 a6 0a 3d 35 2a 0f bc
       -0.023109455 0.054149825 0.033850636 -0.00873809

cnn.4.bias f4 [64]
000000 e2 a5 64 bd 88 43 06 bd 9e 51 4b 3d c9 28 b1 bc
       -0.05582226 -0.032779247 0.049638383 -0.021625893
000010 00 29 6c 3d c6 21 a1 3c 05 21 48 3d 35 79 e6 3c
       0.05765629 0.019669425 0.048859615 0.028133968
000020 3c d7 08 bd 3e df 51 bd fe f7 00 3d 1d 3b 6f bd
       -0.03340839 -0.05123829 0.031486504 -0.058405984
000030 ef 93 d3 3c d5 92 21 3a fc fb 2c bd 27 0a 29 bd
       0.025827376 0.0006163542 -0.0422325 -0.041269448
000040 17 89 37 3d f4 42 fe ba a1 43 12 3d 29 5f 15 bd
       0.044808473 -0.0019398616 0.035709027 -0.036467705
000050 ed 74 bd bc b0 dd ff bc 47 6b fa 3c 75 29 0d 3c
       -0.023127044 -0.031233639 0.030568732 0.008615841
000060 f7 9e 28 ba 78 f8 9d bc 47 ac 4a 3d 33 0b 8d bc
       -0.0006432379 -0.019283518 0.049480703 -0.017217254
000070 ea 94 b9 3b d5 80 0b 3c af ff 6c 3d 64 03 20 3d
       0.005663504 0.008514603 0.057861026 0.039065734
000080 75 e4 35 bd 9d 5e 2c bd 93 19 d8 bc f8 7d d3 3c
       -0.044407327 -0.042082418 -0.026379382 0.025816903
000090 91 ca d0 bc 45 8b 55 bd 57 59 d8 3c 17 93 14 3d
       -0.025487216 -0.05213477 0.026409788 0.03627309
0000a0 bb 8a 7f 3c 86 f8 0f bc 26 e1 6f ba 50 6d 0d 3c
       0.015597041 -0.00878728 -0.0009150676 0.008632019
0000b0 96 4e e4 3a da 26 06 3d 26 e4 64 3d c6 15 d1 3c
       0.001741844 0.032751895 0.05588164 0.025523078
0000c0 52 f9 31 3c be 15 67 3d c2 fc 09 bd 58 73 4d bd
       0.010862665 0.05641722 -0.033688314 -0.05015883
0000d0 60 c7 1f 3d df 76 0c 3d 81 b0 91 bc 73 9a 5c bd
       0.0390085 0.03429305 -0.017784359 -0.05385823
0000e0 0a b5 0c bd d2 6f 8d bc 74 57 21 3b 0e 0e 61 bb
       -0.03435234 -0.017265234 0.0024618777 -0.0034340653
0000f0 ad d7 8e bb 2d 6b a1 3c 71 ec 1f bd 52 fb 2c bd
       -0.0043592067 0.019704426 -0.039043847 -0.042231865

cnn.5.weight f4 [64]
000000 90 d1 80 3f 39 e7 80 3f 17 8c 80 3f f4 b5 7e 3f
       1.0063953 1.0070564 1.0042752 0.9949639
000010 28 4a 81 3f 9d 4a 7f 3f de 81 80 3f 6f f7 7e 3f
       1.0100756 0.99723226 1.0039632 0.99596304
000020 20 a0 80 3f e0 7a 80 3f 43 6f 81 3f a9 27 80 3f
       1.0048866 1.0037498 1.0112079 1.0012103
000030 61 04 81 3f 14 90 80 3f 34 b7 80 3f bc 1c 80 3f
       1.0079461 1.0043969 1.0055909 1.0008769
000040 f6 3b 7f 3f 57 22 80 3f b8 88 80 3f 81 7a 7b 3f
       0.9970087 1.001048 1.0041723 0.982338
000050 2b 02 81 3f a6 91 82 3f d7 0c 81 3f 0f c9 80 3f
       1.0078787 1.0200698 1.0082043 1.0061358
000060 fe a4 7f 3f 3d 5a 80 3f bf f8 7f 3f 5b 8d 80 3f
       0.99861133 1.0027539 0.9998893 1.0043138
000070 b0 e6 80 3f 65 e0 80 3f 4a 3f 80 3f df af 80 3f
       1.00704 1.006848 1.0019314 1.0053672
000080 30 a9 80 3f 5d 7a 80 3f d5 5c 83 3f 8a 64 81 3f
       1.0051632 1.0037342 1.0262705 1.0108807
000090 60 35 82 3f e0 b5 80 3f 64 5b 80 3f 60 8b 7f 3f
       1.0172539 1.0055504 1.002789 0.99822044
0000a0 1d 62 80 3f c6 f5 82 3f a0 77 81 3f b5 d7 80 3f
       1.0029942 1.0231254 1.0114632 1.0065829
0000b0 3e 88 7f 3f 6f 25 81 3f b7 f3 7f 3f 54 85 80 3f
       0.99817264 1.0089549 0.99981254 1.0040689
0000c0 29 d0 81 3f ba 97 7d 3f d0 2a 81 3f 28 9d 7e 3f
       1.014165 0.9905964 1.009119 0.9945855
0000d0 f2 3e 80 3f cc 8a 80 3f ac ec 7c 3f 2c 23 80 3f
       1.0019209 1.0042357 0.9879863 1.0010734
0000e0 2a 16 80 3f 33 74 7d 3f 2f 07 7e 3f 97 3c 81 3f
       1.0006764 0.9900543 0.9922971 1.0096616
0000f0 fb e2 80 3f 0b aa 80 3f 89 0a 7e 3f 5e f5 80 3f
       1.0069269 1.0051893 0.99234825 1.007488

cnn.5.bias f4 [64]
000000 df 17 8d b9 80 69 95 39 4d 1b 5e 3b 3f 76 a6 bb
       -0.000269114 0.00028498098 0.0033890784 -0.005080014
000010 e2 04 b1 3b 61 c3 ee bb d4 cc 53 3b 51 e6 92 bb
       0.0054021934 -0.0072864746 0.0032318132 -0.0044830223
000020 d6 a5 25 3b 43 80 ae 3b c1 c3 fb 3a 76 30 b8 bb
       0.0025275848 0.0053253486 0.001920812 -0.0056210114
000030 8e 25 98 39 51 f6 b9 3a bf 54 9a 3a eb 82 8a ba
       0.0002901968 0.0014187788 0.0011774524 -0.0010567581
000040 c1 0e 91 bb 5f 82 a7 bb 9e 0d a5 3a e0 ef a7 bc
       -0.0044268076 -0.005111977 0.0012592559 -0.020500124
000050 26 80 36 3b 6c a1 00 3c c1 d1 97 3b 55 26 9b 3a
       0.0027847379 0.007850986 0.004633159 0.0011836985
000060 90 73 51 bb 9f 07 7d 3b a9 42 d2 ba 1c 16 5d 3b
       -0.003195975 0.003860928 -0.0016041595 0.0033735102
000070 18 2e 14 3b 7d 23 ec 39 5e e8 cd 39 b5 00 8c 3b
       0.0022610482 0.0004503987 0.00039273774 0.004272545
000080 c4 f8 c8 3b 98 2a 99 39 7e 26 21 3c dc 52 ab 3b
       0.006133171 0.0002921417 0.009835837 0.0052283835
000090 bd 86 b5 3a d7 c6 8e 3b 1f 31 53 3b aa 92 09 bc
       0.0013849359 0.0043571997 0.0032225323 -0.008396784
0000a0 1e 3b c6 3a 35 2e 8d 3a 1a fe 46 bb 29 99 9c 3b
       0.001512382 0.0010771217 -0.0030363859 0.0047790003
0000b0 e9 d4 0d bc b0 94 7f 3b d1 05 d1 bb 1d 3f 9f 3a
       -0.008656719 0.0038998537 -0.006378867 0.0012149547
0000c0 78 1f 1a 3b 8e fa 57 bc d8 1f b8 3b e4 db e3 bb
       0.0023517292 -0.0131822955 0.0056190304 -0.0069537032
0000d0 16 40 ad 3a 2a 16 30 3a f9 9d 13 bc 40 8a 11 bb
       0.0013217952 0.000671717 -0.009009832 -0.0022207648
0000e0 aa 32 e4 39 41 2e 37 bc 9f 39 07 bc b1 f8 24 3b
       0.00043525296 -0.011180461 -0.008253484 0.0025172646
0000f0 9c 3e be 3b 4c 22 fb 3a 7a 7a 08 bc cb 19 c8 3b
       0.0058058035 0.0019160002 -0.008329982 0.0061065904

cnn.5.running_mean f4 [64]
000000 a3 4a b7 3e 02 77 f6 3e 72 0a 22 bf 3c e6 06 bf
       0.3579913 0.4813767 -0.6329719 -0.5269506
000010 0d a3 16 bf ec d1 b3 3e 18 48 0d 3f cc 0b 12 3f
       -0.58842546 0.35121095 0.5518813 0.5704925
000020 a3 a8 e8 be 74 53 3e bf 3d 21 b2 3e 2d 41 d3 be
       -0.4544116 -0.7434609 0.34790984 -0.41260663
000030 83 9d 19 3f 3c 9b d6 3e 20 98 8a bf b4 c9 8d 3e
       0.6000597 0.4191531 -1.0827675 0.2769295
000040 f0 eb 25 3f 43 76 1d bf c0 86 e8 3e 84 ff 71 be
       0.6481314 -0.6150858 0.45415306 -0.23632628
000050 24 a6 5d bf f4 02 0a 3e 7d bc 28 bc 64 06 73 3e
       -0.86581635 0.13477689 -0.010298845 0.23732907
000060 6b 25 8d bf fe 9b 86 bf 89 86 3f 3f f3 da 2f 3f
       -1.1027044 -1.0516355 0.7481466 0.68693465
000070 f2 5c 01 3f d9 b3 e0 3e f7 91 1e 3f d5 1c 4c bf
       0.5053245 0.43887213 0.61941475 -0.79731494
000080 af c4 36 bf b0 8b 9c be 12 63 86 3e 24 c9 a6 3c
       -0.71393865 -0.30575323 0.2624746 0.020359583
000090 2a 38 c2 3e bb 06 84 bf af e2 8a 3e 4c 19 18 be
       0.37933475 -1.0314554 0.2712607 -0.148534
0000a0 fc 4d 23 bf 91 61 af 3e 93 8c a6 3e 6a 77 7f bf
       -0.6379087 0.34254125 0.32529125 -0.99791586
0000b0 66 41 a7 3e 5b e5 e1 be 35 49 01 3f 15 cf ab bd
       0.32667083 -0.44120297 0.5050233 -0.08389107
0000c0 46 f3 ef 3e 6f 80 1d 3d da 24 47 bf 61 53 1d 3f
       0.4686529 0.038452562 -0.77790606 0.6145535
0000d0 07 6f 58 3f 5d 5c 13 bf af 99 84 bf 14 b0 34 bf
       0.84544414 -0.5756281 -1.03594 -0.70581174
0000e0 89 2b 98 bf 4c 6f 93 3e db a5 90 3e 7a cc da 3e
       -1.1888286 0.2879585 0.28251538 0.42734128
0000f0 eb f4 cc bd da d8 c5 be e2 cd cd 3e 5d b4 69 be
       -0.10007652 -0.38642007 0.4019614 -0.2282271

cnn.5.running_var f4 [64]
000000 6e e0 4c 3e a1 44 31 3e cc 7a 51 3e d7 65 70 3e
       0.20007488 0.17311336 0.20457 0.23476349
000010 4c 0b 1e 3e 08 fe 9c 3e ce 47 cf 3e bc 6d 86 3f
       0.15433997 0.3066256 0.4048447 1.0502238
000020 87 d9 64 3e b9 35 f2 3e d3 4e 17 3e 2e 84 9b 3e
       0.22348605 0.47306612 0.14776163 0.30374283
000030 f5 33 49 3e c4 c2 81 3e 56 87 5e 3e fe a8 b6 3d
       0.19648726 0.25343907 0.21731314 0.089189515
000040 7b 61 db 3e a4 7d 97 3e 64 d4 9c 3e 6a e3 b8 3e
       0.4284781 0.29588044 0.3063079 0.36111003
000050 40 3f fa 3e f1 0c 06 3e fb 10 9c 3e 2c 9a 62 3e
       0.4887638 0.13090874 0.30481705 0.22129124
000060 6e ca b0 3e 66 43 02 3f 2a c1 3a 3f 0a 16 08 3f
       0.34529442 0.5088409 0.72950995 0.5315863
000070 a2 df 50 3e f6 97 7b 3e cd 62 9c 3e 81 f0 58 3e
       0.20397809 0.24569687 0.3054413 0.21185495
000080 f5 fc 82 3e e8 d2 15 3f da cc 62 3e 56 cf 5b 3e
       0.25583616 0.5852494 0.22148457 0.21465811
000090 22 d6 36 3e 29 51 c3 3e 0b c5 01 3f a2 13 e4 3e
       0.17855123 0.38147858 0.5069129 0.4454623
0000a0 d3 49 d6 3e 04 26 3b 3e 2f ba 41 3e 8b 3b 9e 3e
       0.41853198 0.1827622 0.1891868 0.30904803
0000b0 da 4f 4a 3e 28 fa 36 3e 62 d5 a0 3e b0 9a d6 3d
       0.19757023 0.17868865 0.31412798 0.10478723
0000c0 19 1c 3b 3e b6 a0 19 3f 89 90 77 3e 5c 18 b9 3e
       0.18272437 0.6001085 0.2417623 0.36151397
0000d0 ff 6d 5a 3e b4 30 b5 3e ae 35 bc 3f 43 c5 a8 3e
       0.21331023 0.3538872 1.4703882 0.32963
0000e0 77 da a0 3e ad 78 18 3f c3 79 9e 3e bc 5a c5 3e
       0.31416675 0.59559137 0.30952272 0.38545787
0000f0 3f fb 61 3e bd e6 84 3e cb 8c 6e 3f f2 85 e5 3e
       0.22068499 0.2595729 0.93183583 0.44828755

lstm.weight_ih_l0 f4 [512, 64]
000000 5d 14 8d 3d 74 86 fe 3c bf 86 b7 3c 18 29 90 bd
       0.068886496 0.031069972 0.02240312 -0.07039088
000010 a2 df 6d bd a0 e2 a7 bc 9e 98 3d bd bb 07 78 bd
       -0.0580746 -0.020493805 -0.046288125 -0.060554247
000020 56 6e 8d 3d 2d c1 21 bd 03 41 c1 bc fd 84 88 3d
       0.069058105 -0.039490867 -0.02359057 0.066659905
000030 cb 51 c0 3d 3d 79 8b 3d 7a db 52 bd dc b4 01 bb
       0.09390601 0.06810234 -0.05147884 -0.0019791638
000040 ae 7a be 3d c6 6f 2f 3d 3d d6 ff 3b dd e2 e5 3c
       0.09300743 0.042831205 0.0078075216 0.028062278
000050 e8 32 10 bd d3 f1 ce bc 8e 9e de 3a 6d b7 7e 3d
       -0.035204798 -0.025261795 0.0016984509 0.062186647
000060 92 8f 87 bd 64 f4 93 3d 0f 3e 67 3d e2 52 ac 3c
       -0.06619181 0.07224348 0.056455668 0.021035615
000070 f0 f8 a8 3d f9 1c 89 bb d0 c3 a9 3c 5f 94 5f 3c
       0.08250606 -0.004184362 0.020723253 0.013646214
000080 3b fe 9c bd 95 c9 89 3d 25 f4 9e 3d f4 18 7d bd
       -0.07665678 0.06727902 0.077614106 -0.061791375
000090 55 39 86 3d 18 54 87 3d 8c 32 e9 3c 2c 83 07 bd
       0.06553904 0.066078365 0.028466485 -0.03308408
0000a0 ed 12 24 bd 27 92 16 bd 45 6c a4 3d 3f 08 a7 bc
       -0.04005711 -0.036760475 0.08028463 -0.020389674
0000b0 22 b3 1d 3d b9 6b 98 bc 93 4e 19 bd b9 8b fa bc
       0.038500912 -0.018606054 -0.03742845 -0.030584203
0000c0 59 5e d1 bb 35 52 97 3d d3 65 f3 bc ce 20 2c 3b
       -0.006389421 0.073887266 -0.02971164 0.002626467
0000d0 ba 61 91 bd f5 cd ac 3c 15 f9 89 3d 31 00 11 3d
       -0.07098718 0.021094302 0.06736962 0.035400573
0000e0 bc 68 93 bd 68 34 85 3c bd e5 9c bc ab 72 a3 bc
       -0.07197711 0.01626034 -0.019152516 -0.019952139
0000f0 90 08 30 bd 26 a9 f3 3b ae 52 2b bd 8e 41 8e bc
       -0.042976916 0.0074359355 -0.041826896 -0.017365243
000100 7b 2f 3d 3d c6 81 a6 3d ad 98 68 bd 89 0e a0 b8
       0.04618786 0.08130221 -0.056786228 -7.632102e-05
000110 7b 03 93 bc af 52 db 3a bc 68 0d bd f6 0a 6e bd
       -0.017945996 0.0016733016 -0.03452371 -0.058115922
000120 d5 83 8d 3b 71 bf 8b bd 93 f8 2e bd 49 a0 8f 3c
       0.004318694 -0.06823624 -0.042717528 0.017532485
000130 03 02 55 3c d0 2d 6c 3d 74 9b 0a bd 14 35 f0 3c
       0.013000968 0.057660878 -0.033839658 0.029322185
000140 c9 7e b5 bd 8e 40 a1 bd 11 ca 92 3c c4 99 8e 3d
       -0.08862073 -0.07873641 0.017918618 0.06962922
000150 3a 17 a2 3d 85 58 8e bd 12 f7 9f bd 8a 2d af bd
       0.07914586 -0.069504775 -0.07810797 -0.08553608
000160 2d f9 69 3b 57 b7 93 3c 55 c5 19 3c 39 91 be bb
       0.00357015 0.01803176 0.0093854265 -0.0058156517
000170 11 57 a0 bd 7f b6 aa 3d c8 0e 87 3c e4 eb a5 bd
       -0.078291066 0.083355896 0.01648654 -0.08101633
000180 9c 33 2d bd ed 23 71 3d 9e a4 92 bd bd 93 e4 3c
       -0.042285547 0.058872152 -0.071603045 0.027902478
000190 e9 35 92 3c 40 34 81 3c e0 d2 af 3c c1 63 e6 bc
       0.017847972 0.015771985 0.021462858 -0.028123738
0001a0 05 de 19 3d 20 70 99 bd cd 3b 5c 3c 92 10 4f bd
       0.03756525 -0.07492089 0.013441992 -0.050552912
0001b0 c4 85 b7 bb f7 4e ab bc 5c 11 8a 3d e5 36 96 bc
       -0.005600663 -0.020911677 0.06741592 -0.018336723
0001c0 d5 ee 7a bd 98 e8 7d bd ef 28 b2 3d fb ef 88 3b
       -0.061262924 -0.061989397 0.08699214 0.0041789985
0001d0 e6 7f 92 bd b2 16 81 3d dd 63 53 3d 5b d8 b4 3d
       -0.07153301 0.06303157 0.05160891 0.08830329
0001e0 42 b7 9b bd 01 a8 17 bd 81 38 9c 3d 5a 57 26 3d
       -0.07603313 -0.037025455 0.07627965 0.04061065
0001f0 df d1 90 bb f9 fd 96 3d ae 6d 99 3d fd 19 47 3d
       -0.00441955 0.0737266 0.07491623 0.04860877
000200 0b 25 7e bd 2f b7 75 3d b4 e2 2c 3d 2e 82 0d bd
       -0.062047046 0.05998915 0.04220839 -0.034547977
000210 80 ae 98 bd 18 38 89 bd fa 5e 3a 3c e3 28 9a bd
       -0.07455158 -0.06700152 0.011375183 -0.0752733
000220 be 33 b0 3d 29 65 a7 bd de 77 b6 3d ed 91 32 3d
       0.08603619 -0.08173592 0.089095816 0.043596197
000230 48 85 5b 3b de 4d 84 3d 41 39 04 3d 92 62 c6 3c
       0.003349619 0.064601645 0.032281164 0.024216924
000240 3c 5b b4 3b 75 3d 1e 3d 47 9d 9c bd 84 60 5d 3d
       0.00550404 0.03863283 -0.07647186 0.054047123
000250 1e c0 54 bd 03 f8 ed 3c 42 c1 77 3d 65 e7 f2 bc
       -0.05194103 0.029048925 0.06048704 -0.029651353
000260 67 51 0a bc fe 34 41 3d 25 a4 ab 3d 3a 07 ba bc
       -0.008442259 0.047169678 0.083809175 -0.022708524
000270 5d f6 40 bd 63 02 c3 3d f9 22 ab bc 1c 15 d7 3c
       -0.04710995 0.095219396 -0.0208907 0.026255183
000280 5f 40 90 bd 37 43 af 3d 54 86 a2 bc 6e b9 35 3d
       -0.07043528 0.08557742 -0.019839443 0.044366293
000290 9b aa fc 3c e2 d9 0e bd a1 11 02 bc b3 5d 00 bd
       0.03084307 -0.034875758 -0.007938773 -0.03133936
0002a0 82 c7 8d 3d 06 84 42 3d 62 c2 63 bd 45 c7 88 bc
       0.06922819 0.04748919 -0.0556053 -0.016696582
0002b0 0a 08 32 3d 9f da 96 bd 21 1e 8d bd 77 73 e4 3c
       0.043464698 -0.073659174 -0.06890512 0.02788709
0002c0 40 cc a4 bd e1 ec 9e bd 50 72 33 3d 4d 2f 4e bd
       -0.0804677 -0.07760025 0.04381019 -0.05033808
0002d0 e8 76 a4 3d dd be a2 3c ec 98 fb 3c 78 48 9a 3d
       0.08030492 0.019866401 0.030712567 0.075333536
0002e0 bc 52 69 3d f6 f1 b3 3b 68 54 a1 bd f2 93 96 bd
       0.056963667 0.0054914905 -0.07877427 -0.07352437
0002f0 78 a5 b8 3d b4 bb 10 bd 95 58 14 bb 86 78 85 bd
       0.09015936 -0.035335258 -0.0022635807 -0.06517129
000300 53 e1 59 3c f2 00 43 bc 43 f1 8d bd 95 c4 4d 3c
       0.01329835 -0.011902081 -0.06930783 0.012559076
000310 70 f8 5a bd b7 39 8e bd ef f9 6c bd ca a5 9e bd
       -0.053459585 -0.06944602 -0.057855543 -0.077464655
000320 e8 f2 54 bd e7 78 83 bd cc ec 24 3d 50 88 88 3b
       -0.051989466 -0.06419545 0.04026489 0.0041666403
000330 55 fc 8e bd e7 66 b1 bd 68 09 04 3b 34 9f 66 bd
       -0.06981722 -0.08662205 0.0020147208 -0.05630417
000340 54 c0 b4 3c 1b 85 e7 bc 3b cd 94 3c c9 4f 69 bd
       0.022064365 -0.028261712 0.018164268 -0.056960855
000350 15 cb 72 bd cd da df 3b 19 13 a5 bd 05 1c fc bc
       -0.059275705 0.006831503 -0.08060283 -0.03077508
000360 c4 34 ac bb f3 ba 21 bd 59 74 95 bd 9f d4 ea bb
       -0.0052553136 -0.03948493 -0.07297582 -0.0071664597
000370 cf 42 7e 3c 58 d0 3b bd 1d 57 a9 bd 37 47 8c bd
       0.015518858 -0.04585299 -0.08268569 -0.06849521
000380 a1 3b 6b 3d e6 83 5f bc 6e 6e c5 bd 63 66 92 bd
       0.057429913 -0.013642287 -0.096402034 -0.07148435
000390 0f 75 01 3c 3f 07 30 bd fe 37 5a bd 6a b7 99 bd
       0.007901444 -0.04297566 -0.053276055 -0.075056866
0003a0 ac 3b 62 3d f4 8e 2f bd 49 52 70 3d fd 16 04 bd
       0.05523269 -0.04286094 0.058672223 -0.032248486
0003b0 3f 6d a9 3d 2c 42 4c 3d 25 09 4c 3b 0c 73 6d bd
       0.0827279 0.049867794 0.003113338 -0.057971045
0003c0 0b 98 e8 3c e2 db b8 bc 10 48 96 3d 0f 0a 97 bc
       0.028392812 -0.022565786 0.073379636 -0.018437413
0003d0 a5 98 23 3d 26 cf 86 bd dd c2 25 bd 60 2d 7b bb
       0.039940495 -0.06582479 -0.04046904 -0.0038326606
0003e0 2c c8 81 bd ce 90 ad 3b 25 a4 aa bc 2d 2c 49 bc
       -0.06337008 0.005296803 -0.020830223 -0.012278599
0003f0 66 2a a0 bc ed ee 76 3d f8 de 32 bd dd 77 91 bd
       -0.019551467 0.06028645 -0.04366967 -0.0710294

lstm.weight_hh_l0 f4 [512, 128]
000000 1c dc a5 bd fd f7 66 3d 73 88 0c 3b 03 b2 18 bd
       -0.08098623 0.056388844 0.0021443635 -0.03727914
000010 04 a9 4e 3d 76 94 7f bd ce 6f 38 bd 23 68 c0 bd
       0.050454155 -0.062397443 -0.0450285 -0.093948625
000020 8e 82 b0 3d de d4 25 bd c2 72 93 3d 22 89 6a bd
       0.08618651 -0.04048621 0.07199623 -0.057259686
000030 a5 c2 43 bd 4c 1d 75 bd 2a 4b ad 3d 1f 3b 23 3d
       -0.04779305 -0.059842393 0.08461602 0.039851304
000040 68 82 8c bd c9 d0 54 3d 5c e1 b6 3c 76 b9 98 bd
       -0.068608105 0.051956926 0.022324257 -0.07457249
000050 d0 96 66 3d 4e dd e9 bc 0d ba ee 3c a9 2c 1c bc
       0.05629617 -0.02854791 0.02914145 -0.009532132
000060 da cb 85 bd 83 5e dc bc ff 86 7e 3c 3e 3a 03 3c
       -0.06533022 -0.026900535 0.015535115 0.0080094915
000070 d3 c8 af 3d 36 73 4b bc 89 aa a3 3d 56 6e 80 bc
       0.08583226 -0.012417605 0.079915114 -0.015677612
000080 50 2f 91 3d 6f 7a 9f bd 0b 0f 8e bd 44 1e 83 bd
       0.07089102 -0.07787024 -0.06936463 -0.06402257
000090 49 a4 99 3d 39 95 dc bb 42 2f 26 bd f3 40 8d 3d
       0.07502038 -0.006731656 -0.040572412 0.06897154
0000a0 39 22 10 bb 2a 31 90 bb 3a 30 11 3d d5 70 9b bb
       -0.0021993055 -0.004400392 0.035446383 -0.0047436752
0000b0 8e 34 92 3c 78 85 3c bd c4 93 5b 3d b3 16 83 3d
       0.017847326 -0.046025723 0.053607717 0.06400814
0000c0 00 43 50 bd b2 7d 51 3d a5 10 83 bb 03 34 0d 3d
       -0.050845146 0.051145263 -0.003999787 0.03447343
0000d0 25 5f 6c 3d a9 49 ad bc f8 06 21 3d fd 03 7a 3d
       0.057707924 -0.021153288 0.039313287 0.06103896
0000e0 d5 3d 8b 3c 55 d3 5c 3d 3f d0 91 3d ba 3b 49 3d
       0.016997257 0.05391248 0.07119798 0.049129225
0000f0 70 3d dc 3c 54 7b a7 bd 04 39 c6 3b 94 21 76 3c
       0.026884764 -0.0817782 0.0060492773 0.015022654
000100 e3 26 d9 bc 71 ae d9 b9 13 2f 03 3d aa 8b 16 3d
       -0.0265078 -0.00041519434 0.032027315 0.036754288
000110 47 3e 90 bd 55 c1 1b 3c ab d6 a6 bd 59 45 8b bd
       -0.070431285 0.009506543 -0.081464134 -0.068003364
000120 b5 02 c7 3c a5 e2 9b 3b 4a 97 20 3d e1 e7 8e 3c
       0.024293283 0.0047572427 0.03920678 0.017444553
000130 6b 7b b0 3d ec 42 bf 3d cc da 25 3c 2d 87 58 3d
       0.0861729 0.09338936 0.010122966 0.05286329
000140 b5 1a 61 3c e0 b1 4f bc eb c4 42 3d 71 e9 75 bd
       0.013739278 -0.012676686 0.047551077 -0.06003708
000150 30 24 8a bd fe b5 60 3d 8d 42 9e 3d 44 b8 e2 3c
       -0.067451835 0.05486106 0.07727537 0.027675755
000160 a7 6c 0e bd 14 c4 60 bb 65 0a 72 bd 58 70 a4 3c
       -0.034771588 -0.003429656 -0.059091944 0.0200731
000170 00 73 0e 3c 6c af aa 3c 5f 42 c3 3c ab c1 b4 bd
       0.00869441 0.0208356 0.02383536 -0.08826002
000180 cf af a6 bd 29 b7 95 3d db 9e 9d bd f6 32 e3 3b
       -0.081390016 0.07310326 -0.07696315 0.0069335653
000190 8e b3 a2 bb d4 e6 0a bc 7f b3 ab bc c6 19 0e bd
       -0.0049652522 -0.008477885 -0.020959614 -0.03469255
0001a0 a6 2a 45 bd e8 16 2b 3d 9f 6a 99 3d e0 69 64 bd
       -0.048136376 0.041769892 0.074910395 -0.055765033
0001b0 35 0c 06 bc f1 9c 63 bd 29 17 97 bd 81 e6 fc bc
       -0.008181621 -0.055569593 -0.07377464 -0.030871632
0001c0 6a 44 56 bd 3d 90 0d 3d 56 77 95 3d 45 09 d3 bc
       -0.05231134 0.034561384 0.07298152 -0.025761256
0001d0 6c c1 21 3d 66 71 05 bd 23 56 6d bd cb 4c 71 bd
       0.039491102 -0.03257885 -0.057943475 -0.058911126
0001e0 8d 43 6f 3d ae 3d 91 bd 45 e7 69 bd 9c a4 fe bc
       0.05841403 -0.070918426 -0.05710532 -0.031084351
0001f0 50 4a 01 bd fb 65 1a 3d a6 ea 0e 3d f8 19 e7 bc
       -0.03156501 0.037694912 0.034891747 -0.028210625
000200 ca dd 1d 3d 25 6d 4e 3d 90 2b 78 3d 51 d7 e0 3c
       0.038541593 0.050397057 0.06058842 0.02744642
000210 c6 ce b2 bc 56 aa 64 bd 99 f6 20 bd 08 45 b8 bb
       -0.021827113 -0.055826508 -0.039297674 -0.0056234635
000220 ed d8 8a bc d2 81 0a bd 59 3f 0b 3d b7 63 3d 39
       -0.016949141 -0.033815213 0.03399596 0.00018061591
000230 8f e2 19 3d 18 a9 ba bc f1 97 98 3d 38 97 eb 3c
       0.03756958 -0.022785708 0.074508555 0.02875863
000240 d4 2d a7 bd 0b c1 58 3d 0a 07 2f bd da 1b 55 3d
       -0.08163038 0.052918475 -0.042731322 0.052028514
000250 4d b4 42 3d 7d 23 83 3c 46 56 cf 3c 0f 12 92 bd
       0.04753523 0.016008133 0.025309693 -0.07132351
000260 4a 9c 89 bd f6 9b 8e bd 02 22 a6 3d 41 86 f9 ba
       -0.06719263 -0.06963341 0.08111955 -0.0019037203
000270 1b 4f 86 bd 95 12 77 bd 35 af bc bc 4f 41 6f bd
       -0.06558057 -0.060320456 -0.023032764 -0.058411893
000280 7d c4 0f bd 04 61 4d 3c 8e 27 bc 3d 93 3f 20 3c
       -0.035099495 0.012535337 0.09187232 0.009780782
000290 ca f0 a5 3c 25 39 84 3d 36 ff a4 bd 1c e0 c0 bc
       0.020256419 0.06456212 -0.0805649 -0.023544364
0002a0 53 92 c3 bd 03 73 57 3d 92 df ac 3b 4a 95 b1 3b
       -0.095493935 0.052599918 0.005275675 0.005419408
0002b0 f2 ec 18 3d 98 88 15 3d 43 c2 26 bd 45 e0 6a bb
       0.037335344 0.03650722 -0.040712606 -0.0035839241
0002c0 ba 3b a3 bc 7a e3 0b 3d 00 5c 01 bd b3 31 44 bd
       -0.01992594 0.034152485 -0.03158188 -0.04789896
0002d0 16 6b 0b 3d 96 fb 8a 3d 38 ef 9e 3b 65 2c 90 ba
       0.034037672 0.067862675 0.0048502944 -0.0010999559
0002e0 03 d0 68 bb 1e ca c0 3c 1d d0 9f bd cf 00 cb 3c
       -0.0035524375 0.023533877 -0.07803366 0.024780659
0002f0 35 ea b6 3d 5a 7c 93 bd fc 51 c3 ba 5e bd b1 bd
       0.0893139 -0.072014526 -0.0014901753 -0.08678697
000300 98 4c 84 3d 9c 24 7b 3d 66 1c 54 3d 15 91 cf bc
       0.064599216 0.06131421 0.051784895 -0.025337735
000310 16 bb db 3c cc f0 81 3d fc b6 e8 3c 8e 54 c9 bc
       0.026822608 0.063447565 0.028407566 -0.024576452
000320 4f 4c 1e 3d 6a e4 2d 3d b3 8e a9 3c 3c 59 03 3d
       0.038646992 0.04245416 0.020697927 0.032067522
000330 69 91 8d bd 5f 14 9a bc 24 cb 89 3c 41 3e d6 3c
       -0.069125004 -0.018808542 0.016820498 0.026152732
000340 c6 6f 8b bd 45 1e 05 3d 8d 7b 0b 3d 54 b5 91 3d
       -0.068084285 0.03249957 0.034053374 0.07114664
000350 e6 f5 8e 3d 7f b5 8e 3d 4d 5b 25 ba 87 41 a7 3d
       0.06980495 0.069682114 -0.00063078554 0.08166795
000360 40 51 f2 bb 7b de e5 3b d1 b3 c8 bc 22 a2 a2 bc
       -0.0073949397 0.007015047 -0.024499806 -0.019852702
000370 5c a9 05 3d 0d a1 8a 3d cf 18 8e bd a7 25 1a 3d
       0.032632217 0.06768999 -0.069383256 0.037633564
000380 48 65 44 bc 03 2b d8 bc f6 6b bb 3c 4c 56 91 bb
       -0.011987038 -0.026387697 0.022878628 -0.004435336
000390 86 3e 8d 3d a3 92 10 bd dd 89 e7 3c 56 0f 3a 3d
       0.06896691 -0.035296094 0.02826398 0.04542478
0003a0 bb d8 98 bd b7 30 c2 bc c6 4e ed bc ad b1 98 3d
       -0.07463213 -0.02370487 -0.028968226 0.07455764
0003b0 d2 85 1c 3c 19 5c 98 3c 40 93 46 3d ed 1b 6c 3d
       0.00955339 0.018598603 0.048480272 0.05764382
0003c0 82 86 9b bd 8e 23 29 3d 9f a8 81 bd eb 11 8b bd
       -0.07594015 0.041293673 -0.0633099 -0.06790527
0003d0 12 ea 33 3d 0b 01 8e 3d 14 20 52 bc c3 45 ee 3c
       0.0439244 0.06933793 -0.012825031 0.029086
0003e0 5c 14 c1 3d ac 78 a9 bc 6b e6 72 bc e2 e4 9d 3d
       0.09427711 -0.020687424 -0.014825444 0.077096716
0003f0 f7 f4 93 3d 45 e8 c8 bd 17 63 86 bc f7 d9 26 bd
       0.07224458 -0.09809927 -0.016404672 -0.04073521

lstm.bias_ih_l0 f4 [512]
000000 f2 b1 84 3d 14 99 85 bd e4 1e 95 3b be 9a 3f 3d
       0.06479253 -0.06523338 0.0045508016 0.046778433
000010 61 0e 54 bd c8 f6 6a bb 46 fe 7c 3d 9c 63 4b 3d
       -0.051771525 -0.003585266 0.06176593 0.04965554
000020 b6 ec ae bd ff ec d3 3c 89 21 b5 bc b7 90 6d 3d
       -0.08541243 0.025869844 -0.022110717 0.05799934
000030 6f 3f 5d 3c 8b 3c ea 3c dc d1 13 3a e5 f3 d1 3c
       0.013503893 0.028593322 0.00056388765 0.025628993
000040 b5 b7 87 3d 0f 97 a6 3d c4 8a 04 3c 1e 97 fa bb
       0.06626836 0.08134281 0.008089725 -0.007647409
000050 14 9c 9a bd 75 73 68 3d 49 d0 a0 bd b7 27 d2 ba
       -0.07549301 0.056750733 -0.07852227 -0.0016033564
000060 da 7f 7e 3d 2e 5c 5e 3c bc 69 13 3d be b1 59 3c
       0.062133648 0.013571782 0.035989508 0.013287006
000070 9e b1 0b 3d 3f c3 fe 3c d7 e8 36 3c d6 ae 7e 3d
       0.034104936 0.03109896 0.011163912 0.062178455
000080 53 38 81 3d f6 dd fc 3c ac 18 89 3c d4 a9 02 bc
       0.06309571 0.030867558 0.016735397 -0.0079750605
000090 d3 20 26 3d 69 99 a5 3d cd 3c d9 3c af e2 9f 3d
       0.040558647 0.08085901 0.02651825 0.07806908
0000a0 fa e6 1d 3d 6c 4f 42 3d b3 46 92 3d 11 a2 9f bd
       0.038550355 0.047439024 0.07142391 -0.077945836
0000b0 58 b7 b0 bd 74 59 42 3c a8 19 c1 bc 22 83 a7 3d
       -0.0862872 0.011862148 -0.023571804 0.081793085
0000c0 fc 51 7a bd 8b d7 d8 3c 00 5b cf bd ad 2d 57 3b
       -0.061113343 0.026469966 -0.10124779 0.0032833621
0000d0 c4 80 a8 3c fd 3c 8d bd f9 78 4f 3d e1 ff 00 3d
       0.020569213 -0.06896398 0.050652478 0.031494025
0000e0 04 77 87 bd 42 82 d3 3b 35 c4 a3 3d ee ee 34 bd
       -0.06614497 0.006454737 0.07996408 -0.044173174
0000f0 5d 39 5b 3c a5 d3 a3 3d d2 b0 82 bb d4 05 84 3d
       0.013380376 0.07999352 -0.003988364 0.06446424
000100 95 27 c7 bd 6d 7d 31 3c 33 5b 42 3d 39 43 b6 3d
       -0.097243465 0.0108331265 0.047450256 0.088995405
000110 f1 ba 4c 3d 9f cb 84 3d f2 a1 fb 3c 69 f3 66 bd
       0.04998297 0.0648415 0.03071687 -0.056384478
000120 f9 08 2b bc 9c ad 9f bd 87 52 15 3d bf c2 c7 bd
       -0.010439151 -0.07796785 0.036455657 -0.09753942
000130 9e 73 9f 3d a3 e3 36 3c 89 60 85 3d 3d 78 95 bd
       0.07785724 0.011162671 0.06512553 -0.07298324
000140 5e a0 8b 3d e3 fb 51 bd dc c4 39 3c 4c eb b1 bd
       0.06817697 -0.05126561 0.011338439 -0.086874574
000150 31 7f a6 bd d0 d7 b1 3c 37 7c 13 3d ad 42 40 bd
       -0.081297286 0.021709353 0.036007132 -0.046938587
000160 04 9a 52 bd 40 85 db 3c b0 e1 16 bd a1 d8 73 3d
       -0.051416412 0.026796937 -0.036836326 0.059532765
000170 f6 1b 5d 3d e3 36 1d 3d d1 6f 88 bb 7e 09 48 3d
       0.053981744 0.038382422 -0.00416372 0.048837177
000180 68 d7 8e 3d ad 0f 08 3d 47 24 1e 3d c5 a1 b2 3d
       0.06974679 0.033218075 0.038608816 0.08722261
000190 0e 1a 34 3d 59 59 da 3b 79 9b 4e bd 3d 58 8a 3d
       0.04397016 0.006663483 -0.05044124 0.06755111
0001a0 aa ac 78 3c 9a 27 29 3d b8 6e a6 3d 52 d4 c0 bc
       0.015177885 0.041297533 0.08126587 -0.023538742
0001b0 d5 b3 25 3d a2 38 b7 ba b4 ad ab bd a6 33 c1 3c
       0.040454704 -0.001397867 -0.083827406 0.023584198
0001c0 a4 60 2a bd 2a 9f 86 3d 2a 2b a0 3c da a1 5d 3d
       -0.04159607 0.06573327 0.019551832 0.05410943
0001d0 05 73 53 bc f7 55 a6 bd d4 5c 83 bc bd 5e 1b bc
       -0.012905841 -0.08121865 -0.016035475 -0.009483037
0001e0 80 01 4d 3d 28 47 ee bc 5c fa 38 3b ef 57 55 3d
       0.05005026 -0.029086664 0.0028225398 0.052085813
0001f0 60 bf 30 bd 63 1f 56 bd 72 3e 9f 3d af b5 51 3d
       -0.04315126 -0.052276026 0.077755824 0.051198658
000200 ca 0e bf 3d ff db 2a 3c f7 48 a1 3c 71 cd c4 3c
       0.09328993 0.010428428 0.019688113 0.024023743
000210 7e 3b 92 bd 8b d0 7e bd 48 20 a6 3d 7d 02 f0 3c
       -0.071402535 -0.0622106 0.08111626 0.029298062
000220 b0 33 97 3d 2a 7f 92 bb 76 7a 9c bd 08 78 22 3d
       0.073829055 -0.0044707255 -0.07640545 0.039665252
000230 ae 6d 5a bd 2f 29 b6 3d 45 fc 8a 3d 5e b8 8a bd
       -0.053327255 0.08894574 0.06786398 -0.067734465
000240 b6 86 19 3d 8f 27 43 bd 00 e7 05 bd a8 df 89 bd
       0.037481986 -0.047645148 -0.032691002 -0.06732112
000250 4f 41 75 3a 4d 6b 1e bd 3f 9a 98 bd 45 1a 5f 3d
       0.000935574 -0.03867655 -0.07451295 0.054468412
000260 0d 14 0f 3d 8f 45 3f bd 99 c4 46 bd 15 b7 5c 3d
       0.03493123 -0.046697196 -0.048527334 0.053885538
000270 aa 1b 7f bd 33 28 6c bd bb 5a 77 3d 0b 2e 59 bc
       -0.062282242 -0.057655524 0.06038926 -0.013255606
000280 15 fe 7d bd 51 70 86 bd ba a1 ee bc 16 16 15 bd
       -0.06200989 -0.065643914 -0.029129852 -0.036398016
000290 28 ef 7b bd 4c 04 b8 bd f0 b8 5e 3d 69 58 a7 3d
       -0.061507374 -0.089851946 0.05437559 0.0817116
0002a0 26 c4 81 3d ad 5f 30 3d e7 e1 bd bc f6 17 4b bd
       0.063362405 0.043059994 -0.023179008 -0.049583398
0002b0 4d 40 7e bd b6 2a 4c 3d ba 33 88 bd 3c 2a 3e 3d
       -0.06207304 0.04984542 -0.06650491 0.046426997
0002c0 78 6a 63 bd 84 69 b1 3d e0 66 a8 3c 9c 79 a6 3d
       -0.05552146 0.08662704 0.020556867 0.08128664
0002d0 18 82 2a 3d 6f fd d0 3c 7a 30 b0 3d 49 66 b5 3d
       0.041627973 0.025511472 0.08602996 0.088574
0002e0 27 55 25 3d 79 cc 01 bd 1c 99 47 bd a4 23 42 3d
       0.04036441 -0.03168914 -0.04873 0.04739727
0002f0 46 ad 61 bd 85 b5 c5 3c 14 c2 82 b9 f3 b8 b7 bc
       -0.055096887 0.024134407 -0.00024940132 -0.022427058
000300 c7 2d 80 3b e8 4a b8 bd cc 39 0a 3d 3c 67 7c bd
       0.003911707 -0.08998662 0.033746526 -0.06162189
000310 d4 b1 2f bc 4d 7c 8e 3d 07 9f 7e bd 03 f2 83 bb
       -0.01072355 0.06957302 -0.06216338 -0.004026653
000320 f0 49 24 3d ba 02 a2 bc b8 9d 72 bd bc 07 7b bc
       0.040109575 -0.01977669 -0.059232444 -0.015321668
000330 5d f7 7c bd 39 24 33 3d 55 be 96 3d ae 45 42 bc
       -0.06175934 0.043735716 0.07360522 -0.011857433
000340 c9 95 00 3d 92 6c 81 3d 48 07 b4 3b af b4 1f bd
       0.031392846 0.06319536 0.005494032 -0.038990673
000350 c0 ee c0 3c b0 1b b6 3b d4 5a 91 bc 44 10 8b 3d
       0.023551345 0.0055575 -0.017743506 0.06790212
000360 19 26 31 bd 6b d6 63 3d 3f ad 20 3d de 17 77 bd
       -0.043249223 0.055624407 0.03922772 -0.060325496
000370 a4 ff 56 3a 71 a3 5b 3d b9 7a 59 3d c8 c6 32 bd
       0.00082015456 0.053622667 0.053095553 -0.043646604
000380 40 79 cc bc 47 c1 a8 bd db b7 a4 3a 8e df 2e 3b
       -0.02496016 -0.0823999 0.0012567 0.0026683542
000390 de 16 6b bb 73 56 12 3d e1 54 dc 3b df a1 c4 3c
       -0.0035871784 0.035726976 0.0067239855 0.024002967
0003a0 a1 00 89 3b 21 02 b7 bd 3e 00 8c bb cf 91 a6 3d
       0.004180983 -0.08935953 -0.00427249 0.081332795
0003b0 7c 01 bf bd 75 1a 37 bc d3 42 0c bd 8e 36 37 bc
       -0.09326455 -0.011175741 -0.034243416 -0.01118244
0003c0 10 2a 1b 3d c8 d5 45 3d fc 14 3c bd fa 12 10 3d
       0.03788191 0.04829958 -0.04591845 0.035174347
0003d0 b8 be be bd 40 b8 a0 3c 1f ae 19 3c 34 59 9c 3d
       -0.093137205 0.019619107 0.009379893 0.07634202
0003e0 21 8d 73 3d 2e 51 a1 3d e0 01 9f 3d ee 79 22 3d
       0.059460763 0.07876812 0.077640295 0.039667062
0003f0 3c 87 60 3d 4f e0 cd 3c 75 97 8f bc 74 95 08 bd
       0.05481647 0.025131373 -0.017528275 -0.033345655
